GPU Mem: [123]
GPU Prob: [1.]
Random select GPU, select GPU 0 with mem: 123
Load: 0.1883s, Before split: 2.132s, Split: 0.0002446s, After split: 52.28s
GNN(
  (preprocess): Preprocess(
    node_feature: dim_out=1
    Total: dim_out=1
  )
  (pre_mp): GeneralMultiLayer(
    (Layer_0): GeneralLayer(
      (layer): Linear(
        (model): Linear(in_features=1, out_features=128, bias=False)
      )
      (post_layer): Sequential(
        (0): BatchNorm1d(128, eps=1e-05, momentum=0.1, affine=True, track_running_stats=True)
        (1): ReLU()
      )
    )
  )
  (mp): GNNStackStage(
    (layer0): GeneralLayer(
      (layer): GeneralIDConv(
        (model): GeneralIDConvLayer(128, 128)
      )
      (post_layer): Sequential(
        (0): BatchNorm1d(128, eps=1e-05, momentum=0.1, affine=True, track_running_stats=True)
        (1): ReLU()
      )
    )
    (layer1): GeneralLayer(
      (layer): GeneralIDConv(
        (model): GeneralIDConvLayer(128, 128)
      )
      (post_layer): Sequential(
        (0): BatchNorm1d(128, eps=1e-05, momentum=0.1, affine=True, track_running_stats=True)
        (1): ReLU()
      )
    )
    (layer2): GeneralLayer(
      (layer): GeneralIDConv(
        (model): GeneralIDConvLayer(128, 128)
      )
      (post_layer): Sequential(
        (0): BatchNorm1d(128, eps=1e-05, momentum=0.1, affine=True, track_running_stats=True)
        (1): ReLU()
      )
    )
  )
  (post_mp): GNNGraphHead(
    (layer_post_mp): MLP(
      (model): Sequential(
        (0): GeneralMultiLayer(
          (Layer_0): GeneralLayer(
            (layer): Linear(
              (model): Linear(in_features=128, out_features=128, bias=False)
            )
            (post_layer): Sequential(
              (0): BatchNorm1d(128, eps=1e-05, momentum=0.1, affine=True, track_running_stats=True)
              (1): ReLU()
            )
          )
          (Layer_1): GeneralLayer(
            (layer): Linear(
              (model): Linear(in_features=128, out_features=128, bias=False)
            )
            (post_layer): Sequential(
              (0): BatchNorm1d(128, eps=1e-05, momentum=0.1, affine=True, track_running_stats=True)
              (1): ReLU()
            )
          )
        )
        (1): Linear(
          (model): Linear(in_features=128, out_features=10, bias=True)
        )
      )
    )
  )
)
bn:
  eps: 1e-05
  mom: 0.1
cfg_dest: config.yaml
dataset:
  augment_feature: []
  augment_feature_dims: []
  augment_feature_repr: position
  augment_label: graph_path_len
  augment_label_dims: 1
  cache_load: False
  cache_save: False
  dir: ./datasets
  edge_dim: 128
  edge_encoder: False
  edge_encoder_bn: True
  edge_encoder_name: Bond
…
